…
, 64, 3)))\nmodel.add(MaxPooling2D(pool_size=(2, 2)))\nmodel.add(Conv2D(filters=32, kernel_size=(3, 3), activation='relu'))\nmodel.add(MaxPooling2D(pool_size=(2, 2)))\nmodel.add(Conv2D(filters=32, kernel_size=(3, 3), activation='relu'))\nmodel.add(MaxPooling2D(pool_size=(2, 2)))\nmodel.add(Flatten())\nmodel.add(Dense(neurons=256, activation='relu'))\nmodel.add(Dense(neurons=10, activation='softmax'))\n\n# Print the model summary\nmodel.summary()\n```\n\n::: {.cell-output .cell-output-stdout}\n```\n| Layer (type) | Output Shape | Param # |\n|--------------|--------------|---------|\n| Conv2D | (62, 62, 16) | 448 |\n| MaxPooling2D | (31, 31, 16) | 0 |\n| Conv2D | (29, 29, 32) | 4640 |\n| MaxPooling2D | (14, 14, 32) | 0 |\n| Conv2D | (12, 12, 32) | 9248 |\n| MaxPooling2D | (6, 6, 32) | 0 |\n| Flatten | (1152,) | 0 |\n| Dense | (256,) | 295168 |\n| Dense | (10,) | 2570 |\n| **Total** | | **312074** |\n\n```\n:::\n:::\n\n\n",
    "supporting": [
      "evaluationDVR1_files"
    ],
    "filters": [],
    "includes": {}
  }
}